weights/best_weight.pth (torch_old, 699654 bytes, 138 tensors)

sa.conv1.weight f4 [1, 2, 7, 7]
-0.014825088 -0.03319242 0.0149232475 -0.04370089 -0.0026649572 0.021857152 -0.08938956 0.0061575584
0.06557514 0.022639059 -0.063302115 0.058937624 -0.015670981 -0.042819038 0.06788356 0.021975765
-0.080093466 -0.07338086 -0.034609377 0.055228844 0.050177004 0.08899067 -0.043504085 0.03904007
0.03610453 -0.052548967 0.09911865 -0.011153218 0.024067428 -0.057767086 -0.08253001 0.037923303
-0.015793303 0.09676761 -0.03830054 0.04753224 -0.08099721 -0.0018612952 0.059984215 -0.027680479
-0.01949202 0.087162405 0.083412156 0.06340528 0.08369705 0.04480575 0.09144921 0.07454272
-0.008668204 0.0062469696 0.06239941 0.08996111 -0.003071247 -0.011217877 -0.06528608 0.070768066
-0.06969385 0.007649304 0.100215115 -0.080024004 0.09660908 0.0891937 0.014735947 0.052629624
-0.0051797573 0.070252836 -0.0142331235 -0.010583459 0.079784065 -0.07393622 0.046843957 0.088891156
0.022288349 0.060563575 0.052948013 -0.007071332 -0.01246876 -0.00080125977 -0.020044554 0.07131061
0.029559908 -0.046926886 0.023250213 0.004192383 0.085498534 -0.03121059 -0.079284936 0.010145698
-0.09274469 -0.06489358 0.071649715 -0.051916294 0.00725092 -0.036025815 -0.05942118 0.015181741
0.037084024 0.019639228
00000000: ede4 72bc c6f4 07bd a380 743c b4ff 32bd
00000010: 90a6 2ebb c50d b33c e011 b7bd 58c5 c93b
00000020: 424c 863d 8c75 b93c 8aa4 81bd 9468 713d
00000030: 6e60 80bc 0463 2fbd 8906 8b3d 8506 b43c
00000040: 0b08 a4bd b448 96bd 90c2 0dbd a437 623d
00000050: 6786 4d3d be40 b63d 5731 32bd 7be8 1f3d
00000060: 58e2 133d 963d 57bd b8fe ca3d fdbb 36bc
00000070: 0e29 c53c 2e9d 6cbd 7e05 a9bd 7755 1b3d
00000080: f560 81bc 192e c63d 07e1 1cbd 2bb1 423d
00000090: dee1 a5bd b4f6 f3ba 02b2 753d 2cc2 e2bc
000000a0: bbad 9fbc 3482 b23d fed3 aa3d a1da 813d
000000b0: 5c69 ab3d 3c86 373d b949 bb3d dba9 983d
000000c0: 1505 0ebc 61b3 cc3b 8696 7f3d 883d b83d
000000d0: f946 49bb 30cb 37bc b5b4 85bd d9ee 903d
000000e0: a6bb 8ebd 03a7 fa3b 953d cd3d a0e3 a3bd
000000f0: fbda c53d 30ab b63d 0b6f 713c 2992 573d
00000100: f4ba a9bb b8e0 8f3d 0c32 69bc 3f66 2dbc
00000110: d465 a33d df6b 97bd 73df 3f3d 910c b63d
00000120: 0e96 b63c 8311 783d 04e0 583d a2b6 e7bb
00000130: c549 4cbc a20b 52ba 7a34 a4bc 4c0b 923d
00000140: 9f27 f23c 6836 40bd 3b77 be3c 4260 893b
00000150: db19 af3d 5aad ffbc 2460 a2bd 243a 263c
00000160: eef0 bdbd ede6 84bd 16bd 923d 2ea6 54bd
00000170: 2099 ed3b ce8f 13bd a063 73bd d6bc 783c
00000180: 6be5 173d 72e2 a03c

base.0.0.weight f4 [64, 3, 3, 3]
-0.023631835 0.10610288 0.29239094 0.10790767 0.11755372 0.22567199 0.072809495 0.01823738
0.11072342 -0.045587067 -0.016852897 0.2490021 0.07195442 -0.07245318 0.07443267 -0.122789964
-0.042352963 0.20708787 0.030328471 0.081325114 0.3333486 0.26523742 0.15086123 0.06352376
0.102614924 0.08733118 0.095967904 -0.37475565 -0.2159182 -0.16531886 -0.7506831 -0.71466553
-0.439884 -0.420905 -0.45015857 -0.3641783 -0.19612579 -0.009535873 -0.10387191 -0.70501786
-0.6531516 -0.29553902 -0.38441342 -0.28133014 -0.21027845 -0.30711427 -0.00015907317 -0.20520838
-0.73335755 -0.5016634 -0.38161808 -0.5519153 -0.38914812 -0.36505976 -1.660279 -1.5950427
-1.7663479 -1.40404 -1.3651774 -1.4244521 -1.6434203 -1.5682888 -1.4863939 -1.5028205
-1.708713 -1.7131407 -1.3637278 -1.3427876 -1.3419677 -1.6367627 -1.4820482 -1.5484174
-1.6597973 -1.7642908 -1.8567991 -1.7179549 -1.6663064 -1.6218972 -1.7959996 -1.7013311
-1.6806567 -1.0640603 -0.76846546 -0.7601271 -0.57501376 -0.99944705 -0.5016569 -0.5182408
-0.6208136 -0.27565852 -1.3603036 -1.2080847 -1.1332971 -0.7273027 -0.977112 -0.46464163
-0.5974875 -0.6439776 -0.28159118 -1.6943454 -1.3633687 -1.2813455 -0.5192495 -0.9313272
-0.43689308 -0.61130595 -0.7085242 -0.3501223 -0.01789382 0.06900561 0.08852262 -0.008538514
-0.020210981 -0.060730014 -0.057243593 -0.073264174 -0.09754382 -0.10830691 -0.123339914 -0.03887404
-0.031475753 -0.1045278 -0.16392052 -0.047990788 -0.026264444 -0.21234016 -0.10255886 -0.17805678
-0.16278839 -0.06553516 -0.08521071 -0.17668726 -0.06073032 -0.1648928 -0.19544879 -0.9855985
-0.35572278 0.44665006 -0.67661136 -0.51632154 -0.5895128 -0.5382935 -0.7542472 -1.0946957
-0.9852616 -0.40684417 0.4856918 -0.81101096 -0.5232668 -0.59080464 -0.6467535 -0.9521114
-1.2368997 -1.0483248 -0.30412453 0.62968343 -0.67013705 -0.44043565 -0.6884747 -0.56274164
-1.0184939 -1.2526969 0.5725839 0.58700395 0.49854726 0.47559267 0.3648242 0.32296443
0.63764423 0.5510217 0.5397819 0.5647911 0.48146924 0.4619779 0.49320364 0.5465212
0.51416814 0.6560177 0.67572165 0.7185814 0.5692912 0.4988997 0.5263346 0.6321477
0.6563282 0.54678875 0.8166404 0.7771345 0.60107857 -0.15223706 -0.13051432 -0.16770658
-0.011998368 -0.07599553 -0.11824321 0.1801372 0.046948094 0.007116824 -0.11201662 -0.17976926
-0.26273245 -0.0136971455 -0.308426 -0.2212211 -0.10336527 -0.085294545 -0.24113996 -0.18436012
-0.32379925 -0.2860817 -0.19717413 -0.3103954 -0.42869928 -0.14449534 -0.24841817 -0.2314602
1.7163774 1.6958894 1.168453 1.0965704 1.7415195 1.4140116 1.226467 1.8474821
1.3854678 1.9782946 1.7382075 1.3300185 1.2770054 1.8410211 1.7253474 1.5560266
2.093323 1.7501817 2.0457788 2.0272303 1.4758887 1.4540982 1.8840003 1.7995989
1.54601 2.2463324 1.8457195 0.35455593 1.0447897 0.16262479 0.026280606 0.46349192
0.95860183 -0.878388 0.33622736 1.0893835 0.44260252 1.057172 0.096351966 0.097730525
00000000: 8d97 c1bc 774c d93d 44b4 953e b2fe dc3d
00000010: 01c0 f03d 8f16 673e 251d 953d 8f66 953c
00000020: f6c2 e23d 81b9 3abd 160f 8abc 68fa 7e3e
00000030: d75c 933d 5562 94bd 2870 983d 4e79 fbbd
00000040: 4d7a 2dbd d80e 543e 6a73 f83c c88d a63d
00000050: abac aa3e 33cd 873e 5e7b 1a3e bf18 823d
00000060: c627 d23d b1da b23d d28a c43d f9df bfbe
00000070: a919 5dbe 5949 29be c52c 40bf 52f4 36bf
00000080: 7a38 e1be dc80 d7be 2f7b e6be 9475 babe
00000090: 33d5 48be 5a3c 1cbc ccba d4bd 0d7c 34bf
000000a0: f134 27bf e450 97be d6d1 c4be 810a 90be
000000b0: 3c53 57be 153e 9dbe e1cc 26b9 2522 52be
000000c0: 52bd 3bbf 036d 00bf 7263 c3be 524a 0dbf
000000d0: 6c3e c7be 1de9 babe 0684 d4bf 5c2a ccbf
000000e0: b017 e2bf 95b7 b3bf 22be aebf 7254 b6bf
000000f0: 995b d2bf b0bd c8bf 2842 bebf 6c5c c0bf
00000100: 1cb7 dabf 3248 dbbf a28e aebf 77e0 abbf
00000110: 99c5 abbf 7181 d1bf c1b3 bdbf 8b32 c6bf
00000120: 3d74 d4bf 48d4 e1bf 98ab edbf f2e5 dbbf
00000130: 8749 d5bf 549a cfbf 51e3 e5bf 38c5 d9bf
00000140: c21f d7bf 2133 88bf 27ba 44bf b197 42bf
00000150: 1a34 13bf c3db 7fbf 966c 00bf 6eab 04bf
00000160: a4ed 1ebf 1d23 8dbe 6e1e aebf 85a2 9abf
00000170: e10f 91bf 8230 3abf 0324 7abf 82e5 edbe
00000180: f1f4 18bf b7db 24bf b82c 90be 4fe0 d8bf
00000190: de82 aebf 2103 a4bf 89ed 04bf 766b 6ebf
000001a0: 73b0 dfbe 8c7e 1cbf d861 35bf 3b43 b3be
000001b0: 0f96 92bc d052 8d3d 594b b53d 20e5 0bbc
000001c0: 8091 a5bc 09c0 78bd 4278 6abd 870b 96bd
000001d0: 0ec5 c7bd 03d0 ddbd a399 fcbd 633a 1fbd
000001e0: b8ec 00bd ac12 d6bd c8da 27be fd91 44bd
000001f0: 8828 d7bc b36f 59be 610a d2bd 8454 36be
00000200: 00b2 26be 4c37 86bd f482 aebd 81ed 34be
00000210: 5bc0 78bd a8d9 28be ba23 48be 2f50 7cbf
00000220: 4c21 b6be 51af e43e 6736 2dbf a62d 04bf
00000230: 50ea 16bf 9acd 09bf 5816 41bf fd1e 8cbf
00000240: 1b3a 7cbf e14d d0be 98ac f83e 6a9e 4fbf
00000250: d0f4 05bf f93e 17bf a391 25bf 93bd 73bf
00000260: bb52 9ebf 822f 86bf 36b6 9bbe ef32 213f
00000270: 1a8e 2bbf c880 e1be e13f 30bf d60f 10bf
00000280: 025e 82bf 5f58 a0bf dc94 123f e445 163f
00000290: 9641 ff3e e280 f33e 3dca ba3e 985b a53e
000002a0: a73c 233f c20f 0d3f 262f 0a3f 2696 103f
000002b0: 2383 f63e 5e88 ec3e 3085 fc3e d0e8 0b3f
000002c0: 86a0 033f c7f0 273f 18fc 2c3f f3f4 373f
000002d0: 11bd 113f c86f ff3e ddbd 063f 6fd4 213f
000002e0: 2005 283f 59fa 0b3f 580f 513f 49f2 463f
000002f0: 49e0 193f 08e4 1bbe 8ca5 05be 46bb 2bbe
00000300: ce94 44bc 8ba3 9bbd 7f29 f2bd e375 383e
00000310: a54c 403d 3f34 e93b f868 e5bd 6f15 38be
00000320: de84 86be fe69 60bc 03ea 9dbe c987 62be
00000330: 2cb1 d3bd e8ae aebd 65ed 76be e6c8 3cbe
00000340: 04c9 a5be 4d79 92be 04e8 49be 25ec 9ebe
00000350: 797e dbbe 96f6 13be 5561 7ebe e703 6dbe
00000360: 41b2 db3f e712 d93f de8f 953f 6b5c 8c3f
00000370: 1cea de3f 55fe b43f dffc 9c3f 4b7a ec3f
00000380: 0257 b13f c238 fd3f 957d de3f 0c3e aa3f
00000390: ea74 a33f 94a6 eb3f 2fd8 dc3f e12b c73f
000003a0: 01f9 0540 f405 e03f 0aee 0240 24be 0140
000003b0: ece9 bc3f e41f ba3f ec26 f13f 4259 e63f
000003c0: a8e3 c53f e9c3 0f40 8940 ec3f 5b88 b53e
000003d0: abbb 853f 1d87 263e 6d4a d73c d04e ed3e
000003e0: ee66 753f 09de 60bf fe25 ac3e eb70 8b3f
000003f0: cc9c e23e 6951 873f 2e54 c53d f126 c83d

base.0.1.weight f4 [64]
1.0818954 1.1044116 1.0850427 0.8285911 0.9195231 1.025664 1.0883718 0.9621019
1.0670553 0.9910621 0.9534055 0.99864274 0.82408893 0.8804592 1.0480216 1.1448475
0.97976977 0.49539793 1.0465225 1.0069554 1.0396934 0.73830307 0.90716267 1.0163746
0.80023503 0.8493012 1.0906347 1.0536625 0.91426665 0.98869485 0.85325783 1.0280622
1.1453881 0.9149421 0.8151951 0.84423846 0.9315783 1.0238403 0.5250998 0.6989037
1.099036 0.9588847 1.0842811 0.86589944 1.1048938 0.82588834 1.0361571 1.0068378
0.93349093 0.66112137 0.9416063 1.0683651 0.78223866 0.7910457 1.1951078 1.2322035
1.063175 1.1060337 0.92669827 1.1758158 1.0312659 0.98961186 0.46627808 0.84651726
00000000: 8c7b 8a3f 5c5d 8d3f aee2 8a3f 8c1e 543f
00000010: de65 6b3f f548 833f c44f 8b3f 4f4c 763f
00000020: 4595 883f 3fb6 7d3f 6212 743f 0da7 7f3f
00000030: 7ef7 523f c665 613f 9225 863f 5d8a 923f
00000040: 31d2 7a3f cca4 fd3e 73f4 853f eae3 803f
00000050: ac14 853f 6e01 3d3f d03b 683f 9018 823f
00000060: 34dc 4c3f ce6b 593f eb99 8b3f 6ade 863f
00000070: 610d 6a3f 1b1b 7d3f 1b6f 5a3f 8b97 833f
00000080: 149c 923f a539 6a3f a0b0 503f 0320 583f
00000090: ea7b 6e3f 330d 833f f16c 063f 5aeb 323f
000000a0: 36ad 8c3f 7879 753f b9c9 8a3f 96ab 5d3f
000000b0: 296d 8d3f 6b6d 533f cca0 843f 10e0 803f
000000c0: 43f9 6e3f 403f 293f 1c0d 713f 30c0 883f
000000d0: cb40 483f f981 4a3f 4bf9 983f d8b8 9d3f
000000e0: 1e16 883f 8392 8d3f 193c 6d3f 2281 963f
000000f0: 8500 843f 3457 7d3f 00bc ee3e 5bb5 583f

base.0.1.bias f4 [64]
0.06004682 0.113436736 0.20403847 -0.84495014 0.20941994 0.21657443 0.39854234 -0.4073194
0.25710338 0.28241602 0.18337898 0.19850871 0.0040371837 0.1478688 0.056773417 -0.21570736
-0.043435406 1.2279255 -0.087452345 -0.014207958 0.30534467 0.61064464 0.24466644 0.12847094
-0.5218324 0.28731576 0.16801795 -0.1665692 -0.7202379 0.23596403 0.97601014 0.5214299
0.11447449 -0.3279051 0.42809075 0.08395965 -0.4182032 0.20320429 -1.5991215 -0.10131646
0.12814161 0.2656465 0.026466137 0.29346517 -0.300714 0.118125945 -0.037831046 0.44272882
-0.004245385 -0.9330906 0.30259064 -0.064878024 0.23138244 -0.75097966 0.069662035 -0.06259383
0.34405848 0.30143303 0.09543848 -0.04404998 -0.2421593 0.16484566 -1.265609 0.12301655
00000000: a8f3 753d 8551 e83d 76ef 503e a74e 58bf
00000010: 2e72 563e b0c5 5d3e be0d cc3e 2b8c d0be
00000020: 0ea3 833e d598 903e b3c7 3b3e de45 4b3e
00000030: 5a4a 843b eb6a 173e 3e8b 683d 64e2 5cbe
00000040: 53e9 31bd aa2c 9d3f 371a b3bd 7fc8 68bc
00000050: 2356 9c3e 3553 1c3f d789 7a3e e38d 033e
00000060: cf96 05bf 0d1b 933e e60c 2c3e 1e91 2abe
00000070: 8361 38bf 8ea0 713e cddb 793f 6e7c 053f
00000080: 9a71 ea3d 2de3 a7be b62e db3e 09f3 ab3d
00000090: bb1e d6be c914 503e 03b0 ccbf 017f cfbd
000000a0: 8e37 033e d102 883e 83cf d83c 1141 963e
000000b0: 2ff7 99be 04ec f13d baf4 1abd 5aad e23e
000000c0: df1c 8bbb 07df 6ebf 29ed 9a3e c5de 84bd
000000d0: 85ef 6c3e 3440 40bf f8aa 8e3d 3231 80bd
000000e0: 6f28 b03e 6e55 9a3e 4075 c33d c06d 34bd
000000f0: 9cf8 77be 4dcd 283e 7aff a1bf 1af0 fb3d

base.0.1.running_mean f4 [64]
90.33621 -336.5095 -1492.4525 -761.984 -95.98787 -551.7317 540.6688 -185.11633
1585.6838 364.9026 169.80042 115.278915 169.13188 -118.41072 615.6287 -55.9219
-703.0242 -107.85939 186.54825 -163.5651 258.3121 325.65103 -472.2302 -127.73007
83.59502 -179.78642 -175.5014 -98.55564 177.14127 239.33661 -464.99307 1552.4178
-417.7685 1137.5132 105.81727 338.3086 100.71636 107.19596 -105.72007 555.3508
73.276886 -268.6868 161.44022 -101.62154 -337.57852 -534.7554 355.10513 476.2039
494.8445 -149.07286 20.774403 115.370834 -325.8366 -131.95412 71.66131 159.78748
399.4554 465.62772 62.13766 -356.65613 -108.87224 -637.5098 -131.13023 -245.46971
00000000: 24ac b442 3741 a8c3 7b8e bac4 fa7e 3ec4
00000010: caf9 bfc2 d4ee 09c4 ce2a 0744 c81d 39c3
00000020: e235 c644 8873 b643 e8cc 2943 ce8e e642
00000030: c321 2943 4ad2 ecc2 3de8 1944 07b0 5fc2
00000040: 8cc1 2fc4 02b8 d7c2 5a8c 3a43 aa90 23c3
00000050: f327 8143 55d3 a243 771d ecc3 cc75 ffc2
00000060: a630 a742 53c9 33c3 5c80 2fc3 7d1c c5c2
00000070: 2a24 3143 2c56 6f43 1d7f e8c3 5f0d c244
00000080: 5ee2 d0c3 6c30 8e44 71a2 d342 8027 a943
00000090: c76e c942 5564 d642 ad70 d3c2 74d6 0a44
000000a0: c48d 9242 e957 86c3 b270 2143 3a3e cbc2
000000b0: 0dca a8c3 58b0 05c4 758d b143 191a ee43
000000c0: 196c f743 a712 15c3 fa31 a641 debd e642
000000d0: 16eb a2c3 41f4 03c3 9752 8f42 98c9 1f43
000000e0: 4bba c743 59d0 e843 f78c 7842 fc53 b2c3
000000f0: 96be d9c2 a160 1fc4 5721 03c3 3f78 75c3

base.0.1.running_var f4 [64]
23903.822 365844.72 6.664494e+06 1.6643656e+06 20151.299 926591.56 848791.1 74964.27
7.3171185e+06 418507.75 97912.46 36223.465 90131.85 23015.197 1.1298024e+06 9432.995
1.609686e+06 15170.281 59722.117 191836.3 240079.78 249348.08 787302.75 26858.244
23239.244 64815.32 117049.85 29141.732 92326.74 170755.88 438676.28 6.6973435e+06
494484.84 4.3402465e+06 30810.328 380404.12 25501.145 48239.113 39131.113 884718.4
23520.217 230649.42 84122.125 19273.057 271374.34 745756.06 318530.78 556840.7
684454.0 63563.3 3813.7346 41723.453 457655.97 54849.113 14139.113 51875.383
381769.9 559413.7 14313.638 376839.6 19366.36 1.4012856e+06 76054.42 165552.95
00000000: a5bf ba46 97a2 b248 5c62 cb4a 6d2b cb49
00000010: 996e 9d46 f937 6249 7239 4f49 236a 9247
00000020: fd4c df4a 7859 cc48 3b3c bf47 777f 0d47
00000030: ed09 b047 65ce b346 53ea 8949 fb63 1346
00000040: b07e c449 2009 6d46 1e4a 6947 1357 3b48
00000050: f273 6a48 0581 7348 6c36 4049 7dd4 d146
00000060: 7d8e b546 522f 7d47 ed9c e447 77ab e346
00000070: 5f53 b447 f8c0 2648 8932 d648 ff62 cc4a
00000080: 9b72 f148 2d74 844a a8b4 f046 84be b948
00000090: 4a3a c746 1d6f 3c47 1ddb 1847 e6fe 5749
000000a0: 6fc0 b746 5b3e 6148 104d a447 1d92 9646
000000b0: cb81 8448 c111 3649 5988 9b48 8bf2 0749
000000c0: 601a 2749 4d4b 7847 c15b 6e45 74fb 2247
000000d0: ff76 df48 1d41 5647 74ec 5c46 62a3 4a47
000000e0: 3d69 ba48 5b93 0849 8da6 5f46 f300 b848
000000f0: b84c 9746 2d0e ab49 368b 9447 3dac 2148

base.1.conv.0.weight f4 [64, 1, 3, 3]
-0.13999985 -0.079784736 -0.10159171 -0.26916233 -0.3633817 -0.7549576 -0.22285172 -0.42073298
-0.9896294 -0.17726968 0.61173856 0.12006972 0.10733104 0.30163535 0.57561576 0.2601668
0.19287685 0.17791338 -0.025277192 -0.033117227 -0.0469869 -0.3550101 -0.45039436 -0.41841763
-0.21730262 -0.08202199 -0.04129421 1.5007261 2.1514666 1.528925 -1.3488054 -1.0557303
-0.94704247 0.97953963 -0.32746407 1.4017897 -0.12047308 0.064605184 -0.2593719 0.0032415795
0.07494193 -0.0494364 -0.12401731 -0.0047502085 -0.234279 -0.81974393 0.08643753 0.95578516
0.9050051 0.4612273 2.3282907 0.25985727 0.51455146 0.20279832 -0.2617242 -0.13260923
-0.18849392 0.07238444 -0.19122341 -0.24854791 -0.046842534 -0.015583236 -0.1693053 0.05967009
0.23847918 0.21664499 0.16345686 0.5056125 0.40756723 0.033859853 0.18866624 0.51011217
-0.06020758 0.5252336 0.24163456 0.60829175 -0.101899594 -0.062974915 0.910968 -0.062626496
-0.020735972 -0.55005586 0.104983665 -1.4336311 -0.18977737 -0.5358445 -0.60714585 -1.2252787
-0.663195 -1.2909846 0.4966287 0.38250777 0.04245008 0.48510838 0.018685784 0.09950734
0.55035895 0.2808923 0.28050295 0.55446863 0.12847804 0.21892203 0.624741 0.3515925
0.14203176 0.523078 0.29387745 0.8462928 -0.41800088 -0.16666506 -0.40903243 -0.29266068
-0.8267172 -0.2448907 -0.20050837 -0.56741726 -0.4296292 -0.12418846 -0.29637802 -0.46904916
0.25661933 -0.75481236 -0.16559948 -0.46917763 0.2840014 -1.1535044 -0.93484896 0.07857199
-0.40959296 -0.40304288 -0.28640097 -0.06362935 -0.6350599 -0.3365242 -0.3815184 0.00481854
-0.25209522 -0.14079554 -0.17365704 0.032304756 0.036850624 -0.017827868 -0.22508667 0.24588813
1.1634635 0.5544166 -0.1297559 0.33411002 1.0132401 -0.3228659 -0.16744106 0.23843926
-0.6478126 -0.12243017 0.38168332 0.4068976 -0.021592366 0.43040043 0.839817 0.32527107
0.3579685 0.21016662 0.03874022 0.08221201 0.14381547 0.52626544 0.26735392 0.18790442
0.66233546 0.56378406 0.26064098 0.668493 1.1425165 1.0346323 1.1523128 1.2938282
0.96782607 1.3705325 1.745724 1.5048572 -0.73263305 0.26877284 -0.11037411 -0.030517034
1.3283064 0.49528086 0.03917919 -0.09298391 0.29009706 -0.46556383 -1.073388 -0.8899058
-0.47412756 -0.8594882 -1.1844544 -0.7552808 -0.6406078 -0.16887443 0.63919777 0.23766328
0.39786446 -0.13501799 -0.17893773 0.66886425 0.607013 -0.32693955 0.44933295 -0.108661085
-0.1356166 -0.14544475 -0.2623109 -0.08212295 0.13948986 -0.3077669 -0.57420653 -0.4406899
-0.68452287 -0.6929984 -0.3287081 -0.24377733 -0.1832496 -0.28523088 -0.09218998 -0.20412381
-0.42500106 -0.12293088 0.070456564 1.0165702 0.42441863 0.5024264 0.14121906 0.32517716
-0.6089188 0.81774706 -0.10725997 0.2815803 0.20394114 0.4122411 0.19121434 0.11163406
0.09579516 0.2529793 0.109838225 -0.7187399 -0.8711324 -0.79036635 -0.59388757 -0.8247082
-0.5963409 -0.45219204 -0.6358518 -0.44130057 -0.08002779 -0.106031954 -0.06100396 -0.05681924
00000000: 1f5c 0fbe 2e66 a3bd 500f d0bd a5cf 89be
00000010: 2b0d babe e744 41bf 3e33 64be 506a d7be
00000020: 5a58 7dbf 2f86 35be e69a 1c3f 1de7 f53d
00000030: 60d0 db3d f36f 9a3e 8e5b 133f 9534 853e
00000040: 8281 453e ed2e 363e 1d12 cfbc eea5 07bd
00000050: 5675 40bd e2c3 b5be 179a e6be d63a d6be
00000060: 9484 5ebe 25fb a7bd 1e24 29bd cb17 c03f
00000070: a1b1 0940 d0b3 c33f a8a5 acbf 2c22 87bf
00000080: 6071 72bf 1cc3 7a3f 5fa9 a7be d86d b33f
00000090: 97ba f6bd b94f 843d 65cc 84be ae70 543b
000000a0: 287b 993d d37d 4abd cafc fdbd a3a7 9bbb
000000b0: d6e6 6fbe bdda 51bf 2906 b13d 56ae 743f
000000c0: 6aae 673f fc25 ec3e b702 1540 030c 853e
000000d0: a5b9 033f 5daa 4f3e b700 86be b7ca 07be
000000e0: 8d04 41be 4b3e 943d 12d0 43be 5883 7ebe
000000f0: f5dd 3fbd d450 7fbc 5e5e 2dbe a068 743d
00000100: e333 743e 2fd8 5d3e 3c61 273e d26f 013f
00000110: a7ac d03e a1b0 0a3d b931 413e b696 023f
00000120: 399c 76bd b675 063f 0d6f 773e 02b9 1b3f
00000130: bcb0 d0bd fef8 80bd 3335 693f 5242 80bd
00000140: 7cde a9bc 76d0 0cbf ad01 d73d 3981 b7bf
00000150: 0055 42be 1b2d 09bf e96d 1bbf efd5 9cbf
00000160: 26c7 29bf fc3e a5bf 1e46 fe3e 0fd8 c33e
00000170: 23e0 2d3d 2060 f83e ee12 993c 81ca cb3d
00000180: 53e4 0c3f 1ed1 8f3e 159e 8f3e a8f1 0d3f
00000190: bf8f 033e 192d 603e 07ef 1f3f ef03 b43e
000001a0: c670 113e 71e8 053f 1b77 963e a5a6 583f
000001b0: 3604 d6be 3faa 2abe b36c d1be 9fd7 95be
000001c0: bda3 53bf a1c4 7abe 1152 4dbe 4242 11bf
000001d0: 5cf8 dbbe 8556 febd dcbe 97be 3627 f0be
000001e0: 9c63 833e 623b 41bf e992 29be 0d38 f0be
000001f0: a268 913e 08a6 93bf 4352 6fbf 5aea a03d
00000200: 2bb6 d1be a35b cebe 26a3 92be 1b50 82bd
00000210: 4993 22bf e64c acbe 6156 c3be d8e4 9d3b
00000220: a012 81be b52c 10be 27d3 31be fe51 043d
00000230: aef0 163d c00b 92bc 1f7d 66be 19ca 7b3e
00000240: 5fec 943f 3fee 0d3f bbde 04be 7810 ab3e
00000250: dab1 813f ae4e a5be ab75 2bbe 6c29 743e
00000260: 0cd7 25bf abbc fabd ff6b c33e e254 d03e
00000270: 79e2 b0bc 725d dc3e 3ffe 563f ee89 a63e
00000280: a647 b73e eb35 573e 11ae 1e3d c55e a83d
00000290: 5d44 133e 55b9 063f 9de2 883e 046a 403e
000002a0: d18e 293f 2754 103f bc72 853e 5b22 2b3f
000002b0: fb3d 923f d56e 843f fc7e 933f 2a9c a53f
000002c0: 73c3 773f 9c6d af3f e273 df3f 299f c03f
000002d0: d78d 3bbf 989c 893e d20b e2bd dcfe f9bc
000002e0: f205 aa3f 7495 fd3e 5c7a 203d 596e bebd
000002f0: 9a87 943e 625e eebe c764 89bf ded0 63bf
00000300: d9c0 f2be 6b07 5cbf 349c 97bf 155a 41bf
00000310: dffe 23bf 6bed 2cbe 77a2 233f 015e 733e
00000320: e4b4 cb3e 2842 0abe 743b 37be b03a 2b3f
00000330: 3465 1b3f 9f64 a7be f80e e63e b489 debd
00000340: 14df 0abe 78ef 14be 9d4d 86be 1430 a8bd
00000350: 6ed6 0e3e a093 9dbe 33ff 12bf 1ba2 e1be
00000360: e43c 2fbf 5868 31bf 6e4c a8be c4a0 79be
00000370: c8a5 3bbe c809 92be 1ace bcbd d505 51be
00000380: bd99 d9be 2fc3 fbbd 884b 903d f91e 823f
00000390: 664d d93e 049f 003f bb9b 103e 9f7d a63e
000003a0: 1ae2 1bbf df57 513f 1dab dbbd 4b2b 903e
000003b0: f2d5 503e 4411 d33e b1cd 433e 66a0 e43d
000003c0: 4130 c43d 8186 813e ddf2 e03d 57ff 37bf
000003d0: 8802 5fbf 7355 4abf 0409 18bf 1420 53bf
000003e0: cca9 18bf b785 e7be 2fc7 22bf 26f2 e1be
000003f0: 9ce5 a3bd 4827 d9bd 4adf 79bd 4bbb 68bd

base.1.conv.0.bias f4 [64]
4.3644163e-06 5.1405556e-07 -1.0373486e-06 -8.931474e-06 -2.809985e-06 -1.0582397e-06 2.8559889e-08 5.3291564e-07
-8.987275e-07 -1.0405756e-06 -2.714686e-07 5.494991e-06 1.1484149e-06 -1.631472e-07 -1.2231301e-06 -2.313497e-06
-1.0629238e-06 -6.18774e-07 2.2270299e-06 3.2182709e-06 -3.5193167e-07 1.5084357e-08 2.556521e-06 3.692942e-07
2.7610082e-07 -6.307905e-08 -1.6756799e-06 2.6878445e-07 7.561521e-07 1.2716305e-06 -2.6509972e-06 -7.936655e-06
-1.4379573e-06 -9.083185e-07 -5.034245e-06 -4.3961182e-07 6.60286e-06 6.087107e-07 1.1010727e-06 1.2968012e-06
-4.73763e-06 1.1216502e-05 -6.4204976e-08 -7.65307e-08 1.0975683e-06 1.6108525e-06 2.8099741e-06 5.6911546e-07
1.2462345e-06 1.5792551e-06 -2.6517023e-06 -2.1743028e-06 7.771014e-07 -1.7287397e-06 -4.3503036e-07 -3.1787636e-06
1.7497e-06 4.4878434e-06 5.059674e-07 4.9058212e-06 1.7864273e-06 8.272494e-06 -4.7266963e-06 -5.076153e-06
00000000: 0d72 9236 a1fd 0935 073b 8bb5 64d8 15b7
00000010: 2d93 3cb6 d708 8eb5 dc53 f532 af0d 0f35
00000020: 1540 71b5 e8a9 8bb5 5cbe 91b4 9d61 b836
00000030: 3c23 9a35 902d 2fb4 6e2a a4b5 9341 1bb6
00000040: c9a9 8eb5 d319 26b5 1574 1536 79f9 5736
00000050: 1ff1 bcb4 da92 8132 b290 2b36 6943 c634
00000060: 023b 9434 1376 87b3 ece7 e0b5 744d 9034
00000070: 60fa 4a35 e4ac aa35 c9e7 31b6 ac27 05b7
00000080: d6ff c0b5 2cd3 73b5 d6eb a8b6 ca03 ecb4
00000090: 238e dd36 4866 2335 92c8 9335 c00d ae35
000000a0: eff7 9eb6 822e 3c37 0fe1 89b3 3359 a4b3
000000b0: 2950 9335 7834 d835 fd92 3c36 51c5 1835
000000c0: 4b44 a735 cbf6 d335 e6f3 31b6 3dea 11b6
000000d0: 009a 5035 0b07 e8b5 1e8e e9b4 be52 55b6
000000e0: 3cd7 ea35 4896 9636 d1d1 0735 af9c a436
000000f0: 2dc5 ef35 17ca 0a37 039a 9eb6 d253 aab6

base.1.conv.1.weight f4 [64]
0.9751404 1.1916598 1.2499515 1.3061918 1.0473851 1.4807853 0.9485176 0.9866098
1.0606966 1.0331196 0.9376323 1.0803846 1.0516297 1.0301063 0.83664674 0.8357671
1.1312159 1.1992651 0.75344414 1.1491858 1.088892 0.7528886 1.1299144 0.86444
1.1103823 0.97304285 1.2475718 1.0135298 0.9086869 1.1324794 0.9140976 1.0621889
1.141804 1.0383115 1.0664256 0.9240245 1.068832 0.8747173 1.038016 0.70701414
0.92223585 0.5383849 0.9930351 1.2035861 0.9347605 0.74076325 1.0217651 1.282313
0.61317277 1.2074358 1.0692669 0.8377353 0.7858546 1.1020361 1.1324596 1.2461514
0.8495013 1.0999149 0.9799654 0.93389374 0.6998941 0.85332006 1.0894266 0.901152
00000000: cda2 793f 4f88 983f 69fe 9f3f 4b31 a73f
00000010: b710 863f 5f8a bd3f 0dd2 723f 7692 7c3f
00000020: e8c4 873f 433d 843f ac08 703f 0b4a 8a3f
00000030: cd9b 863f 86da 833f 7b2e 563f d5f4 553f
00000040: afcb 903f 8581 993f b7e1 403f 8518 933f
00000050: d060 8b3f 4fbd 403f 09a1 903f f14b 5d3f
00000060: 0221 8e3f 5619 793f 6fb0 9f3f 58bb 813f
00000070: b49f 683f 16f5 903f 4d02 6a3f cef5 873f
00000080: a226 923f 64e7 843f a280 883f df8c 6c3f
00000090: 7dcf 883f 79ed 5f3f b5dd 843f e1fe 343f
000000a0: a617 6c3f 98d3 093f 8c37 7e3f 1c0f 9a3f
000000b0: 774c 6f3f a9a2 3d3f 33c9 823f d522 a43f
000000c0: e4f8 1c3f 428d 9a3f bddd 883f d275 563f
000000d0: c42d 493f 850f 8d3f 70f4 903f e481 9f3f
000000e0: eb78 593f 03ca 8c3f 03df 7a3f a913 6f3f
000000f0: 422c 333f 2f73 5a3f 5572 8b3f e6b1 663f

base.1.conv.1.bias f4 [64]
-0.15135874 0.18160821 -0.12735352 0.14187565 -0.012037238 0.09565653 0.03555184 -0.06595414
0.11633685 -0.15540178 -0.14531937 0.018122591 -0.14165044 -0.18338126 -0.037948832 -0.118867114
-0.07808187 0.30973968 0.103588276 0.018116051 -0.28995734 -0.29043415 0.15313506 -0.038027763
-0.037372846 0.07569647 0.12734877 -0.00945003 -0.17178069 0.20199755 0.07059887 -0.20916142
-0.036329076 0.20355038 -0.23597124 -0.15494551 0.0770883 0.008974942 0.14480871 0.08499021
0.19283788 0.221877 0.11692938 -0.35709265 -0.14091855 -0.06343016 -0.25531375 0.24222398
0.07527328 -0.2966993 -0.14120224 -0.05835512 -0.073334806 -0.18092407 -0.098003045 0.17992346
0.032478727 0.012889621 -0.03707213 -0.2917275 0.0488079 -0.21974847 0.17117131 -0.09741145
00000000: c9fd 1abe 81f7 393e f668 02be da47 113e
00000010: d637 45bc 92e7 c33d ce9e 113d f712 87bd
00000020: 0442 ee3d a521 1fbe 9ace 14be d475 943c
00000030: d00c 11be 4cc8 3bbe 3c70 1bbd 9a70 f3bd
00000040: 63e9 9fbd 3396 9e3e 1726 d43d 1d68 943c
00000050: 4a75 94be c9b3 94be 70cf 1c3e 00c3 1bbd
00000060: 4514 19bd c006 9b3d b767 023e 4cd4 1abc
00000070: 47e7 2fbe 72d8 4e3e 2496 903d 692e 56be
00000080: cccd 14bd 836f 503e 72a2 71be 09aa 1ebe
00000090: 78e0 9d3d a30b 133c bc48 143e 590f ae3d
000000a0: 4b77 453e b933 633e ac78 ef3d d9d4 b6be
000000b0: f44c 10be ace7 81bd 7cb8 82be 9009 783e
000000c0: e128 9a3d f8e8 97be 5297 10be c705 6fbd
000000d0: 8f30 96bd 2944 39be d2b5 c8bd db3d 383e
000000e0: 6a08 053d fd2e 533c f2d8 17bd 4f5d 95be
000000f0: cbea 473d be05 61be 8847 2f3e a87f c7bd

base.1.conv.1.running_mean f4 [64]
-6.4862676 4.148546 -2.9251938 12.0301695 -0.92870456 8.000076 -1.9814484 5.556165
3.4310653 -10.085463 4.1702757 6.126738 -5.411962 -4.124229 -6.3449545 -1.1876813
3.8315234 3.4495409 5.5336404 20.545599 2.4277475 -6.3774657 3.266434 -3.2651167
-6.826407 3.1144383 2.813274 -12.973842 -2.0898879 1.4937509 2.590241 18.813229
-2.3925939 -39.192413 -7.2744713 5.847378 5.2137547 3.1776485 19.823048 -6.764045
7.8786054 -8.466662 6.4039464 -4.929544 8.318058 3.3021052 6.5513167 6.253118
5.9047027 -32.164845 -6.12455 12.454463 4.3072896 -16.309866 4.645481 6.5856204
-37.477337 -5.7731643 -1.284616 -16.368162 2.8293343 -2.0933855 -14.899424 -3.7116895
00000000: 818f cfc0 e4c0 8440 6036 3bc0 937b 4041
00000010: 95bf 6dbf 5000 0041 1aa0 fdbf 1bcc b140
00000020: 9396 5b40 0e5e 21c1 e672 8540 3d0e c440
00000030: cb2e adc0 aff9 83c0 de09 cbc0 f105 98bf
00000040: ae37 7540 47c5 5c40 9513 b140 635d a441
00000050: 3760 1b40 3314 ccc0 410d 5140 acf7 50c0
00000060: ed71 dac0 f552 4740 ae0c 3440 db94 4fc1
00000070: b9c0 05c0 3b33 bf3f 82c6 2540 7e81 9641
00000080: 4220 19c0 08c5 1cc2 78c8 e8c0 b81d bb40
00000090: 14d7 a640 985e 4b40 9a95 9e41 0e73 d8c0
000000a0: 891d fc40 7377 07c1 21ed cc40 d3be 9dc0
000000b0: c416 0541 b155 5340 63a4 d140 8b19 c840
000000c0: 53f3 bc40 cda8 00c2 50fc c3c0 7b45 4741
000000d0: 51d5 8940 9b7a 82c1 c8a7 9440 67bd d240
000000e0: cbe8 15c2 c3bd b8c0 4c6e a4bf fff1 82c1
000000f0: d013 3540 07fa 05c0 0a64 6ec1 528c 6dc0

base.1.conv.1.running_var f4 [64]
36.6744 9.458181 4.4999647 79.08502 0.45532474 33.707344 2.8040562 20.269985
9.219997 75.63518 13.995805 30.031488 25.784346 9.442061 34.74358 0.92605275
9.307837 1.8490541 28.818579 248.5437 4.7952757 23.722124 5.4489164 6.0310717
44.449394 5.0289187 4.2256994 105.28939 3.7601743 1.7927809 3.604661 235.3264
3.2122629 1539.6965 34.941334 28.74719 27.90706 8.603661 41.582268 42.939487
52.135494 36.646065 35.85312 12.866975 44.069683 5.863059 38.735085 26.740856
32.299496 387.38596 27.52084 139.73671 9.341702 150.89964 18.622522 39.549435
1033.2528 26.337805 1.4427259 157.39896 5.1529717 2.320638 28.821196 7.390287
00000000: 96b2 1242 b654 1741 b6ff 8f40 882b 9e42
00000010: 5320 e93e 52d4 0642 a875 3340 ee28 a241
00000020: 1c85 1341 3645 9742 d1ee 5f41 7d40 f041
00000030: 5746 ce41 af12 1741 6df9 0a42 cb11 6d3f
00000040: e6ec 1441 cead ec3f 738c e641 308b 7843
00000050: e672 9940 e9c6 bd41 865d ae40 8afe c040
00000060: 2ecc 3142 e7ec a040 ee38 8740 2b94 d242
00000070: b2a6 7040 d879 e53f c4b2 6640 8f53 6b43
00000080: b795 4d40 4a76 c044 edc3 0b42 3ffa e541
00000090: a941 df41 98a8 0941 3e54 2642 09c2 2b42
000000a0: bf8a 5042 9295 1242 9869 0f42 21df 4d41
000000b0: 5b47 3042 2e9e bb40 baf0 1a42 46ed d541
000000c0: af32 0142 67b1 c143 ae2a dc41 99bc 0b43
000000d0: 9d77 1541 4fe6 1643 edfa 9441 9f32 1e42
000000e0: 1728 8144 d3b3 d241 3eab b83f 2266 1d43
000000f0: 25e5 a440 5585 1440 cf91 e641 3b7d ec40

base.1.conv.3.conv1.weight f4 [1, 2, 7, 7]
-0.20144898 0.11968821 -0.14130077 -0.046189267 0.073778994 -0.22799064 -0.08976743 0.02664685
0.0885757 0.0433493 -0.12764446 0.17877471 -0.10132913 -0.1682408 -0.0037662906 0.101054944
-0.16656983 0.073742114 -0.036188997 -0.054415133 -0.05542502 -0.12505308 0.1041578 -0.05320847
-0.08372141 0.046674863 -0.11935572 -0.23010051 0.1781098 0.1616282 0.09990383 -0.0768146
0.04198072 -0.2571215 -0.13470012 -0.12745252 -0.024354177 -0.023927262 -0.25120354 -0.3583479
-0.291908 -0.271089 0.07265753 -0.18808188 -0.116102636 -0.20874994 -0.25411084 -0.09187501
0.011461827 0.48673204 0.37491372 0.7180916 0.67510855 1.1579876 0.086047605 0.29869968
0.16603562 0.77002925 0.28957552 1.5521102 1.0357832 0.45130053 0.3661607 0.74421287
1.0598725 0.32633775 0.721254 0.9513287 0.34756705 0.29730925 0.9232679 0.4864609
0.6756052 0.68276274 -0.036058936 -0.09037899 0.020580959 1.3931787 0.9575994 0.78923464
0.41647795 0.17918785 -0.42460218 -0.022755716 0.23963082 0.3589053 0.5021517 -0.026450306
-0.7797949 0.0008545566 -0.8076091 -0.12862961 0.44947115 0.117006585 0.2160048 -0.5227358
0.12350125 0.74687237
00000000: a448 4ebe 181f f53d 26b1 10be f530 3dbd
00000010: 7119 973d 6176 69be fdd7 b7bd 7f4a da3c
00000020: 2d67 b53d 098f 313d 3bb5 02be b810 373e
00000030: a685 cfbd 5147 2cbe dfd3 76bb e5f5 ce3d
00000040: 4891 2abe 1b06 973d ea3a 14bd 67e2 5ebd
00000050: 5905 63bd ea0d 00be af50 d53d 20f1 59bd
00000060: 2176 abbd 242e 3f3d c670 f4bd 789f 6bbe
00000070: 6a62 363e dd81 253e 619a cc3d f950 9dbd
00000080: faf3 2b3d 6ea5 83be d4ee 09be ea82 02be
00000090: 6982 c7bc 1b03 c4bc c09d 80be 6079 b7be
000000a0: f774 95be 2dcc 8abe 79cd 943d 8998 40be
000000b0: 38c7 edbd 8bc2 55be d11a 82be f728 bcbd
000000c0: 63ca 3b3c f134 f93e b1f4 bf3e dad4 373f
000000d0: ead3 2c3f f038 943f ba39 b03d 2aef 983e
000000e0: 3e05 2a3e a320 453f 3e43 943e 8cab c63f
000000f0: 8b94 843f dd10 e73e 6a79 bb3e bc84 3e3f
00000100: e7a9 873f be15 a73e 1aa4 383f 478a 733f
00000110: 4ff4 b13e eb38 983e 495b 6c3f 6711 f93e
00000120: 76f4 2c3f 8ac9 2e3f 89b2 13bd 9f18 b9bd
00000130: 6699 a83c ae53 b23f 3c25 753f 480b 4a3f
00000140: 993c d53e 057d 373e 7565 d9be 326a babc
00000150: c861 753e 6fc2 b73e 048d 003f 50ae d8bc
00000160: a3a0 47bf 5304 603a 78bf 4ebf 7bb7 03be
00000170: 1521 e63e 26a1 ef3d 5d30 5d3e 03d2 05bf
00000180: 39ee fc3d 0733 3f3f

base.1.conv.4.weight f4 [64, 64, 1, 1]
0.014112395 0.21999452 0.07678123 0.37065992 0.22959504 -0.14162451 0.26741242 0.25485292
0.11285723 0.25512615 -0.040540155 0.2772191 0.12691699 -0.06525846 0.085437454 0.08016664
-0.028992087 -0.2066523 0.240689 -0.069180965 -0.3345632 0.15847121 -0.099628545 -0.20736988
-0.04423384 -0.10547639 0.20520884 -0.17950864 -0.11742354 0.15225996 0.08190632 0.02016248
-0.08360829 0.08796929 0.16769016 -0.07722714 -0.015434292 -0.027379526 -0.0061109345 -0.12342938
-0.057143394 -0.28760207 0.034419697 -0.013859602 0.22728565 0.3035718 -0.026816722 0.17532784
0.41103205 0.24640608 0.2925141 -0.15139626 -0.044806316 -0.2818411 -0.22515514 0.14787297
-0.057767034 0.14737268 0.2646936 -0.007570489 0.14048868 -0.115327224 0.06195279 -0.15393417
0.143513 0.24575594 -0.226568 0.12388438 0.24294834 0.48866326 0.34448224 0.07235149
-0.18455309 0.047588933 -0.06425533 -0.15693863 0.1745856 -0.2635782 0.26775792 0.090827964
-0.17695417 -0.21816307 0.16879365 0.024874384 -0.049478427 -0.045641515 0.08177546 -0.1733583
0.004540476 0.04394414 0.03245833 -0.26667914 0.0915779 0.30850786 0.06492104 -0.0071834344
-0.1223709 0.02200836 0.19086131 -0.094653815 0.08065036 0.06996177 0.04875572 -0.03004127
0.10671882 0.03842914 -0.1737107 0.026471777 -0.105581574 0.12107082 -0.06306464 -0.17595841
0.28546292 -0.013949444 -0.06505873 -0.05647712 0.050770737 -0.020462543 -0.15852757 0.12868339
0.16676967 0.13195221 0.13763149 -0.18413387 0.21769983 -0.17544079 -0.057368807 -0.026421787
-0.0063876193 -0.098413214 -0.24101734 -0.18177965 -0.028049892 0.116002955 -0.13451172 -0.14293377
0.13813962 0.020647066 0.08157027 -0.16124322 0.04712783 -0.38262185 0.13356015 0.17120901
0.0121777225 0.017357713 0.30174798 0.09589648 -0.01614147 -0.30113032 -0.068630986 -0.18670727
-0.039475888 0.10191558 -0.28555274 -0.118890144 -0.053260572 -0.054362122 0.13948435 0.026011668
-0.17018378 -0.020104302 -0.15099789 0.22717457 0.11552899 0.3616586 -0.3081964 -0.14580303
0.3128763 -0.029965831 0.08045009 -0.13597023 0.102052346 -0.06480539 -0.023051333 0.014529876
0.017850332 -0.018235194 -0.20593975 0.24006872 0.2072455 -0.31784198 0.10919713 -0.1063854
-0.033664342 -0.04581098 -0.2051279 0.13267516 -0.05800073 -0.027964279 -0.045383263 -0.13488385
-0.0994648 -0.063551545 -0.051737018 -0.15715185 -0.15409236 -0.010354684 -0.030492645 -0.26399502
0.27384767 0.08224057 -0.0128443 0.11106829 -0.25676733 0.20990413 0.10395737 -0.09361616
-0.33317775 0.14133705 -0.08160304 0.2591459 0.10417287 -0.18061957 -0.1975841 0.19531736
0.31918582 0.021572525 -0.19338422 -0.1612289 -0.06295584 -0.13545524 0.06547441 0.15627229
-0.30290267 0.022268727 -0.17287278 -0.0013499534 0.12842135 -0.12879723 -0.15530099 -0.11042573
-0.09306617 0.115293205 0.10411778 0.033540756 -0.044032212 -0.064397655 -0.076299384 0.16070499
0.08425274 -0.23504645 0.08722236 0.110441156 -0.056551654 -0.32907662 0.06792048 0.20937586
-0.105859615 0.12766229 -0.01461394 -0.33848983 -0.082100965 0.11381968 -0.2756488 -0.008790461
00000000: ad37 673c 3e46 613e 7a3f 9d3d 23c7 bd3e
00000010: f61a 6b3e 0406 11be 48ea 883e 157c 823e
00000020: b121 e73d e59f 823e 6f0d 26bd a9ef 8d3e
00000030: 87f6 013e 3aa6 85bd d5f9 ae3d 682e a43d
00000040: d080 edbc a99c 53be 2d77 763e c0ae 8dbd
00000050: de4b abbe 4746 223e 0d0a ccbd c558 54be
00000060: 8b2e 35bd 0104 d8bd 4422 523e 1dd1 37be
00000070: c17b f0bd 09ea 1b3e 80be a73d c92b a53c
00000080: d33a abbd 3e29 b43d f8b6 2b3e 4329 9ebd
00000090: 1de0 7cbc 074b e0bc 3c3e c8bb 8bc8 fcbd
000000a0: 310f 6abd 9440 93be abfb 0c3d 6213 63bc
000000b0: 92bd 683e c36d 9b3e beae dbbc 2489 333e
000000c0: cb72 d23e e051 7c3e 68c4 953e 9f07 1bbe
000000d0: d486 37bd 7a4d 90be 128f 66be 036c 173e
000000e0: 209d 6cbd dde8 163e eb85 873e dd11 f8bb
000000f0: 44dc 0f3e ae30 ecbd 35c2 7d3d eba0 1dbe
00000100: 12f5 123e 72a7 7b3e 7101 68be 18b7 fd3d
00000110: 73c7 783e 1232 fa3e fa5f b03e 052d 943d
00000120: 7cfb 3cbe 9dec 423d 4c98 83bd 85b4 20be
00000130: 91c6 323e b9f3 86be 9117 893e 0304 ba3d
00000140: 7933 35be 2466 5fbe 3ed8 2c3e 5dc5 cb3c
00000150: e4a9 4abd 99f2 3abd e479 a73d d784 31be
00000160: 46c8 943b c5fe 333d 07f3 043d 2b8a 88be
00000170: 328d bb3d bef4 9d3e 52f5 843d 0463 ebbb
00000180: 989d fabd e04a b43c 2671 433e dcd9 c1bd
00000190: 042c a53d 1e48 8f3d 14b4 473d 1c19 f6bc
000001a0: 668f da3d e067 1d3d 38e1 31be 57db d83c
000001b0: 273b d8bd faf3 f73d 0928 81bd 712e 34be
000001c0: 3228 923e 358c 64bc 833d 85bd 8d54 67bd
000001d0: faf4 4f3d 10a1 a7bc 0d55 22be 94c5 033e
000001e0: abc5 2a3e 7b1e 073e 45ef 0c3e 978d 3cbe
000001f0: b4ec 5e3e c0a6 33be 8efb 6abd 8172 d8bc
00000200: 3c4f d1bb de8c c9bd 40cd 76be 7224 3abe
00000210: e3c8 e5bc f592 ed3d 71bd 09be 3b5d 12be
00000220: 7974 0d3e 0924 a93c 500e a73d f11c 25be
00000230: 1d09 413d 03e7 c3be fec3 083e 6a51 2f3e
00000240: 1285 473c c331 8e3c b67e 9a3e 6065 c43d
00000250: 1e3b 84bc c12d 9abe 678e 8cbd 3130 3fbe
00000260: 78b1 21bd 1eb9 d03d f833 92be ad7c f3bd
00000270: c227 5abd d1aa 5ebd fcd4 0e3e 6c16 d53c
00000280: a844 2ebe c7b1 a4bc 319f 1abe 73a0 683e
00000290: 779a ec3d 512b b93e ebcb 9dbe 644d 15be
000002a0: 5331 a03e e77a f5bc 04c3 a43d c83b 0bbe
000002b0: d200 d13d b0b8 84bd 26d6 bcbc b80e 6e3c
000002c0: dc3a 923c f961 95bc dfe1 52be 93d4 753e
000002d0: 2a38 543e 2fbc a2be bfa2 df3d 97e0 d9bd
000002e0: 9fe3 09bd 4ba4 3bbd 0c0d 52be ffdb 073e
000002f0: 2c92 6dbd 5815 e5bc cde3 39bd fe1e 0abe
00000300: 33b4 cbbd 5027 82bd 32ea 53bd 6aec 20be
00000310: 63ca 1dbe b1a6 29bc b6cb f9bc 5b2a 87be
00000320: c335 8c3e be6d a83d e670 52bc c677 e33d
00000330: 0277 83be 1cf1 563e 9ae7 d43d d4b9 bfbd
00000340: 4696 aabe a9ba 103e 7f1f a7bd c5ae 843e
00000350: 9658 d53d 56f4 38be 7c53 4abe 4601 483e
00000360: 536c a33e ddb8 b03c 8306 46be 3019 25be
00000370: feee 80bd c7b4 0abe 7317 863d d805 203e
00000380: 0f16 9bbe e86c b63c 9005 31be ebf0 b0ba
00000390: e380 033e 6ce3 03be 3907 1fbe e326 e2bd
000003a0: 7a99 bebd d81e ec3d b43b d53d 0862 093d
000003b0: 1f5b 34bd ebe2 83bd da42 9cbd d98f 243e
000003c0: b38c ac3d 04b0 70be a3a1 b23d f92e e23d
000003d0: b5a2 67bd bb7c a8be e519 8b3d a066 563e
000003e0: edcc d8bd e7b9 023e 4f6f 6fbc 8a4e adbe
000003f0: 8d24 a8bd 4b1a e93d d721 8dbe de05 10bc

base.1.conv.5.weight f4 [64]
1.0930598 0.8028456 1.0835522 1.2149074 0.927179 0.9369261 0.94053406 1.1239312
1.1440868 1.1201781 1.1626204 0.98720044 1.0160949 0.73410696 1.177342 1.0714672
1.0739655 0.8921699 0.9529815 0.9509339 0.8928511 1.0266414 0.8135414 1.322519
0.84418917 1.2133834 1.2280202 1.1966441 1.0115013 0.8963177 0.9546342 0.92866224
1.1974537 1.2482264 0.75349736 0.64186484 0.9173071 0.9487678 1.0589359 1.0094365
1.0171275 1.2104547 0.9182865 1.1740195 1.0407504 0.9973907 0.86513245 1.0030179
0.889365 0.843188 1.0243458 0.86422753 1.1005007 1.1702679 0.79591894 1.3509741
0.8495005 0.7786374 1.140081 0.9015452 1.0871474 0.8962272 1.0503802 1.2575824
00000000: 62e9 8b3f 4a87 4d3f d7b1 8a3f 1682 9b3f
00000010: 9a5b 6d3f 64da 6f3f d7c6 703f fadc 8f3f
00000020: 7071 923f ff61 8f3f bfd0 943f 2bb9 7c3f
00000030: 660f 823f 6fee 3b3f 25b3 963f d625 893f
00000040: b477 893f 3f65 643f 98f6 733f 6770 733f
00000050: e491 643f fc68 833f 4044 503f 4d48 a93f
00000060: c81c 583f 2650 9b3f c42f 9d3f a22b 993f
00000070: e078 813f 1475 653f e862 743f cfbc 6d3f
00000080: 2a46 993f e2c5 9f3f 34e5 403f 4151 243f
00000090: a3d4 6a3f 72e2 723f 368b 873f 3735 813f
000000a0: 3c31 823f 2ef0 9a3f d314 6b3f 4546 963f
000000b0: 4f37 853f ff54 7f3f 5279 5d3f e462 803f
000000c0: 6dad 633f 2bdb 573f c31d 833f 043e 5d3f
000000d0: 35dd 8c3f 57cb 953f 58c1 4b3f b8ec ac3f
000000e0: dd78 593f c854 473f 2dee 913f abcb 663f
000000f0: a527 8b3f 256f 653f dc72 863f 76f8 a03f

base.1.conv.5.bias f4 [64]
0.0004365601 -0.0021600192 -0.0071483366 -0.00053106353 0.0023934632 -0.00044941917 0.0043985196 -0.005088548
-0.00093681086 0.0024507886 -0.0026937108 0.0011455353 -0.003996578 -0.0009646558 -0.0037521515 -0.002079059
0.0032615312 -0.0033289536 0.0046233423 0.008968759 0.002559441 -0.0016509866 -0.0072530233 -0.003883242
0.001800714 -0.0031128863 -0.0013871508 -0.0028077578 -0.004313167 0.0015043884 0.0023298652 -0.0027854638
0.0041512717 -0.004170775 0.0021386354 0.0016585053 0.0023344462 -0.0032513866 -0.0004060894 0.0048868493
0.0015129708 0.0006526362 0.007790535 0.001825111 0.002936785 0.00038690126 0.0040340745 0.005010149
-0.0014764381 -0.0076126447 -0.0064048436 0.0027877565 -0.0036456648 0.0023895719 0.0072214706 -0.0011468306
0.0024527586 0.00095732027 -0.002089909 -0.00012817209 0.0016801547 0.0009605943 -0.0017312322 -0.0062849387
00000000: 1be2 e439 1c8f 0dbb 983c eabb 1237 0bba
00000010: a6db 1c3b 05a0 ebb9 7521 903b d6bd a6bb
00000020: 5094 75ba 699d 203b f888 30bb c925 963a
00000030: baf5 82bb f4e0 7cba a8e6 75bb d240 08bb
00000040: 6abf 553b 932a 5abb 687f 973b b4f1 123c
00000050: 4bbc 273b eb65 d8ba c5aa edbb fd7d 7ebb
00000060: ef05 ec3a 9101 4cbb 0fd1 b5ba 5c02 38bb
00000070: 7855 8dbb e62e c53a a7b0 183b 548c 36bb
00000080: 6407 883b ffaa 88bb 5928 0c3b 3462 d93a
00000090: 82fd 183b 3715 55bb 66e8 d4b9 dd21 a03b
000000a0: e04e c63a ad15 2b3a bf47 ff3b 9038 ef3a
000000b0: 1477 403b 02d9 ca39 4530 843b 2d2c a43b
000000c0: 0b85 c1ba 7e73 f9bb b9df d1bb cbb2 363b
000000d0: 1bec 6ebb 5d9a 1c3b 16a2 ec3b 4051 96ba
000000e0: 76be 203b adf4 7a3a dbf6 08bb ef65 06b9
000000f0: a338 dc3a 64d0 7b3a 83ea e2ba e3f1 cdbb

base.1.conv.5.running_mean f4 [64]
3.0682974 1.5791091 -2.50834 -2.6249084 1.096321 6.910722 8.423638 -3.2213647
6.716133 5.0005455 0.4035886 -3.4434464 -3.3512704 6.9394555 -4.811147 -7.6710157
6.0205398 -4.5869584 -5.0859528 3.6274078 6.0311866 -4.599086 -2.5673819 -0.79840994
1.0697849 -3.3982666 1.8196492 -4.9186053 -6.5634604 4.0936646 -6.4531956 -0.21486261
3.3875735 -6.4119234 -0.73445094 -1.4803635 -0.55676746 0.95201504 -1.6751053 -7.0559306
-9.787113 -5.11492 9.366479 -6.1980295 -3.031718 3.678945 -0.39558196 4.874196
2.4526844 2.826011 3.8892071 3.6554554 -3.6029048 -5.2198486 -0.6682862 1.4085463
-1.7484453 2.3168776 1.4018508 3.1726139 -4.93713 -6.7789764 -3.2530859 -2.0852425
00000000: fc5e 4440 3f20 ca3f a488 20c0 80fe 27c0
00000010: 3f54 8c3f a224 dd40 39c7 0641 d72a 4ec0
00000020: 90ea d640 7804 a040 2aa3 ce3e 6d61 5cc0
00000030: 377b 56c0 0510 de40 ebf4 99c0 f678 f5c0
00000040: 43a8 c040 5dc8 92c0 20c0 a2c0 7327 6840
00000050: 7bff c040 b62b 93c0 fc4f 24c0 9864 4cbf
00000060: b6ee 883f 337d 59c0 44ea e83f 3765 9dc0
00000070: de07 d2c0 4dff 8240 9480 cec0 f204 5cbe
00000080: 01ce 5840 7a2e cdc0 fa04 3cbf 8d7c bdbf
00000090: 5088 0ebf 42b7 733f da69 d6bf 2fca e1c0
000000a0: 0498 1cc1 6dad a3c0 19dd 1541 4256 c6c0
000000b0: ab07 42c0 d673 6b40 b889 cabe 6af9 9b40
000000c0: c8f8 1c40 5ddd 3440 c5e8 7840 fbf2 6940
000000d0: fe95 66c0 0009 a7c0 ce14 2bbf 3f4b b43f
000000e0: 0ecd dfbf b947 1440 d96f b33f 1b0c 4b40
000000f0: f8fc 9dc0 60ed d8c0 8f32 50c0 9d74 05c0

base.1.conv.5.running_var f4 [64]
9.45394 6.674303 10.155128 4.1026754 7.281373 11.858317 18.91083 3.8255422
14.344389 8.985867 9.234865 5.670613 10.828333 10.634163 6.8812504 12.023628
5.1921697 21.070492 15.512078 9.726451 13.044627 17.797375 2.4117298 11.030112
2.9068947 5.6794953 15.830043 14.430595 11.927804 11.988411 13.849262 7.236444
10.209891 14.9100685 7.31867 3.0676675 7.362092 7.3402166 5.713182 15.343209
26.59214 9.744203 22.941078 10.486737 10.764008 10.721232 6.5927377 8.688882
12.959485 7.102942 4.747803 6.741787 4.8982368 4.8822513 1.8298366 2.6857126
2.973766 12.576728 7.83285 12.737352 7.0086317 14.457298 9.47696 5.207157
00000000: 5743 1741 e493 d540 677b 2241 1e49 8340
00000010: 0201 e940 abbb 3d41 6149 9741 afd5 7440
00000020: 9e82 6541 1cc6 0f41 02c2 1341 a975 b540
00000030: da40 2d41 8825 2a41 3433 dc40 c860 4041
00000040: 4126 a640 5e90 a841 7931 7841 8b9f 1b41
00000050: cbb6 5041 0661 8e41 c859 1a40 577b 3041
00000060: 900a 3a40 6dbe b540 db47 7d41 b8e3 6641
00000070: 49d8 3e41 88d0 3f41 9496 5d41 f390 e740
00000080: b75b 2341 a48f 6e41 8b32 ea40 aa54 4440
00000090: 4296 eb40 0ee3 ea40 63d2 b640 c97d 7541
000000a0: b4bc d441 41e8 1b41 5487 b741 adc9 2741
000000b0: 6039 2c41 2b8a 2b41 b5f7 d240 a905 0b41
000000c0: 0d5a 4f41 4d4b e340 01ee 9740 b8bc d740
000000d0: 5bbe 9c40 673b 9c40 1638 ea3f b7e2 2b40
000000e0: 2f52 3e40 473a 4941 b5a6 fa40 32cc 4b41
000000f0: b646 e040 1851 6741 a1a1 1741 08a1 a640

base.2.conv.0.weight f4 [128, 64, 1, 1]
-0.09450812 0.022909509 0.2150486 0.05467149 0.039293025 -0.15939453 -0.05312312 -0.16901334
0.028553909 0.2275558 0.029457156 -0.11435268 0.19298786 0.1208452 -0.015529792 0.031346813
-0.04856265 0.18804446 -0.033549014 0.20010893 -0.072032444 -0.03527785 0.06632939 0.029141523
-0.07536283 -0.050655223 0.19729084 -0.14732267 -0.009014653 0.0934526 -0.16978894 -0.16902333
0.22532156 -0.1640147 -0.016028125 -0.26862434 -0.03188785 0.09673341 -0.043414455 -0.029555006
-0.08562963 0.2524208 0.013730929 -0.10889615 -0.00093972334 0.025352934 0.28573126 0.01881379
-0.14982362 -0.0027334502 0.11291411 -0.24466029 -0.18875979 0.003147497 0.16214679 0.08553792
-0.11311053 -0.14142004 -0.011738578 -0.13292384 -0.10338162 0.14314511 -0.09275671 0.05576222
0.17031167 -0.14261912 -0.16711684 0.007779993 -0.019177437 -0.020092793 0.11731849 -0.17424466
-0.25155643 -0.1852002 -0.17526662 -0.03781334 0.08151352 -0.17348757 0.18469825 0.06302672
0.023928476 0.0826052 -0.19552575 -0.21910289 -0.055229377 0.051074546 0.0019851918 0.17954686
-0.1462971 -0.21684067 -0.09702437 -0.17319535 -0.108581915 0.09453011 0.009152138 -0.08360838
-0.19881701 0.106526084 0.110078685 0.027682781 -0.10313036 -0.13167025 0.13458814 0.1740403
0.12115004 0.1420467 -0.1383828 -0.033250365 0.13132532 0.048837945 -0.09429821 -0.12659658
0.006598062 -0.02427577 0.14958622 -0.2511768 -0.06413221 -0.008265944 0.1343488 -0.0076025845
-0.17962582 -0.008124284 0.10819065 0.004804853 0.013620417 0.06715103 0.092791386 0.0011622983
0.093859755 -0.004319504 0.19520783 0.023604061 -0.13986208 -0.08024313 0.13129847 -0.02059385
-0.09011151 0.051928926 -0.061275642 -0.13727356 0.091964066 -0.022894487 0.08754509 0.026324367
0.06319176 0.110701 -0.05424953 0.13320833 0.14106505 -0.16016905 0.017388526 0.014874751
0.19761957 0.12310348 -0.035279367 0.16225484 0.007235073 -0.02362594 0.031700227 0.058406256
0.061042156 0.08192963 0.036771383 -0.037941027 0.04056052 -0.13285993 -0.16353841 -0.31576434
0.1261605 -0.15648372 -0.077745825 -0.18720649 0.057154145 -0.08027687 -0.1858612 -0.11168398
0.28438768 -0.030776313 0.10267509 -0.12389834 0.17093161 0.018501012 0.18423101 0.11619637
-0.025823403 -0.03498053 -0.032984138 0.19085187 -0.048812892 0.13879406 -0.053189836 0.071017876
-0.18105114 -0.078429885 -0.2739764 0.16790101 0.14813705 -0.15167335 -0.12725435 -0.013344481
0.1788887 0.28892496 -0.03963785 -0.28483343 -0.01236924 -0.010666566 0.009092843 -0.10446464
-0.09729921 0.031120278 0.045420047 0.3114848 0.026298568 -0.14139895 -0.09565939 -0.16105647
0.0023062394 0.08135568 0.084133014 -0.022615176 -0.118023545 0.08523376 0.45236877 -0.019613637
0.24754314 -0.10144684 0.0260442 0.051183928 -0.375582 -0.26279843 -0.0290682 0.14829075
-0.04625904 -0.08711586 -0.0528421 0.046169896 0.2612756 -0.1429338 0.098153636 0.09289084
0.20865643 0.29029664 -0.05814237 0.228706 -0.14081085 0.0062454483 -0.07776299 0.012284011
0.12104599 -0.048796523 0.1212733 0.31364658 -0.07160173 0.19250488 0.11726487 0.18602562
00000000: 798d c1bd b9ac bb3c b335 5c3e 36ef 5f3d
00000010: b9f1 203d 5238 23be a197 59bd d511 2dbe
00000020: e3e9 e93c 6304 693e 2250 f13c bd31 eabd
00000030: 9c9e 453e b07d f73d ab70 7ebc 8465 003d
00000040: a1e9 46bd ba8e 403e b16a 09bd 5be9 4c3e
00000050: bf85 93bd 827f 10bd b4d7 873d 34ba ee3c
00000060: d457 9abd da7b 4fbd 9c06 4a3e c1db 16be
00000070: 32b2 13bc 1464 bf3d 27dd 2dbe 7414 2dbe
00000080: b2ba 663e 78f3 27be 6a4d 83bc 2189 89be
00000090: d69c 02bd 2b1c c63d 5bd3 31bd 571d f2bc
000000a0: 965e afbd 4d3d 813e b1f7 603c f204 dfbd
000000b0: c457 76ba f5b0 cf3c 5e4b 923e 611f 9a3c
000000c0: 5d6b 19be af23 33bb 833f e73d 3a88 7abe
000000d0: 3f4a 41be 3d46 4e3b cf09 263e 812e af3d
000000e0: 7ea6 e7bd 6ad0 10be 2a53 40bc 301d 08be
000000f0: beb9 d3bd a294 123e 3bf7 bdbd ed66 643d
00000100: 2f66 2e3e bf0a 12be ad20 2bbe 50ef fe3b
00000110: 001a 9dbc a499 a4bc ad44 f03d 316d 32be
00000120: 01cc 80be 1fa5 3dbe 1879 33be 29e2 1abd
00000130: 8ff0 a63d baa6 31be 8a21 3d3e 2714 813d
00000140: a705 c43c ea2c a93d e737 48be 825c 60be
00000150: 3338 62bd 8b33 513d fe19 023b 22db 373e
00000160: e8ce 15be 7b0b 5ebe b7b4 c6bd 1f5a 31be
00000170: 3260 debd 0199 c13d d9f2 153c df3a abbd
00000180: b096 4bbe 592a da3d ef70 e13d 00c7 e23c
00000190: 0336 d3bd 91d4 06be 79d1 093e 9f37 323e
000001a0: 831d f83d b174 113e 39b4 0dbe 8931 08bd
000001b0: 257a 063e 4c0a 483d 6c1f c1bd 89a2 01be
000001c0: 8e34 d83b fbdd c6bc 212d 193e 3f9a 80be
000001d0: c057 83bd e26d 07bc bb92 093e 1a1f f9bb
000001e0: d5ef 37be b81b 05bc 0f93 dd3d 0772 9d3b
000001f0: 2b28 5f3c 7b86 893d 6909 be3d 4258 983a
00000200: 8b39 c03d a08a 8dbb 90e4 473e 4e5d c13c
00000210: 0138 0fbe 8356 a4bd 1b73 063e 6fb4 a8bc
00000220: 628c b8bd 6db3 543d 2bfc 7abd 7191 0cbe
00000230: a857 bc3d 388d bbbc d74a b33d 33a6 d73c
00000240: ae6a 813d 35b7 e23d c134 5ebd c467 083e
00000250: 5b73 103e 5b03 24be 6272 8e3c 3ab5 733c
00000260: c95c 4a3e ad1d fc3d 1981 10bd 2226 263e
00000270: 3114 ed3b 308b c1bc 19d8 013d 663b 6f3d
00000280: 5707 7a3d b9ca a73d 979d 163d 0d68 1bbd
00000290: ca22 263d 6f0c 08be 9d76 27be ddab a1be
000002a0: 3830 013e 453d 20be 3439 9fbd 0fb3 3fbe
000002b0: 771a 6a3d 3368 a4bd 6652 3ebe 92ba e4bd
000002c0: 439b 913e 9b1e fcbc 5147 d23d 6abe fdbd
000002d0: b208 2f3e 6f8f 973c 0ea7 3c3e 5df8 ed3d
000002e0: 9a8b d3bc bf47 0fbd 601a 07bd ac6e 433e
000002f0: 07f0 47bd 0820 0e3e 96dd 59bd d271 913d
00000300: 7865 39be d99f a0bd a246 8cbe 3eee 2b3e
00000310: 3db1 173e 4250 1bbe f74e 02be cfa2 5abc
00000320: 992e 373e f9ed 933e 4c5b 22bd b0d5 91be
00000330: 5aa8 4abc d2c2 2ebc 26fa 143c 8ff1 d5bd
00000340: cf44 c7bd f4ef fe3c 5f0a 3a3d f07a 9f3e
00000350: 1870 d73c e3ca 10be 12e9 c3bd fdeb 24be
00000360: 4724 173b cf9d a63d ee4d ac3d 7643 b9bc
00000370: 54b6 f1bd 0a8f ae3d e19c e73e c7ac a0bc
00000380: f37b 7d3e 5cc3 cfbd a55a d53c 3da6 513d
00000390: 494c c0be 848d 86be 6f20 eebc 88d9 173e
000003a0: 1e7a 3dbd cd69 b2bd f570 58bd a51c 3d3d
000003b0: eac5 853e 3d5d 12be c604 c93d 8d3d be3d
000003c0: 08aa 553e c3a1 943e b226 6ebd e831 6a3e
000003d0: b830 10be 9ea6 cc3b 3442 9fbd e042 493c
000003e0: f6e6 f73d ddde 47bd 235e f83d 4996 a03e
000003f0: eea3 92bd 0020 453e 9028 f03d 807d 3e3e
